results/c_code/approach3/mlp_float.tflite (tflite, 2520 bytes, 4 tensors)

sequential/dense_1/BiasAdd/ReadVariableOp f4 [4]
000000 eb 2a 6a 3f f7 e2 f5 bf 67 98 0b 40 ca fb 12 c0
       0.9147174 -1.9209889 2.181177 -2.296618

sequential/dense/BiasAdd/ReadVariableOp f4 [12]
000000 06 e3 24 be 20 81 16 bf d6 3d 74 3f c8 91 e5 c0
       -0.16102228 -0.5879078 0.95406854 -7.1740456
000010 57 0b dd bf 0e 84 e4 bd 5f 68 8e 3f 67 fe 32 be
       -1.7269086 -0.11158 1.1125602 -0.1747986
000020 42 f9 75 bd a9 50 9c 3f e6 b9 48 3f 48 39 2c 3f
       -0.060052164 1.2212116 0.7840866 0.67274904

sequential/dense/MatMul f4 [12, 12]
000000 95 9f d9 be dd 28 54 bd 52 92 96 be 9a 94 62 3e
       -0.42504564 -0.051796783 -0.2940851 0.22127
000010 3b 95 5f 3e 08 87 20 bf 02 a5 6e 3e 5a 1e 2c 3e
       0.2183427 -0.6270604 0.23305133 0.16808453
000020 c7 81 1e be 91 1f 95 be 73 71 62 3d af 9b 43 be
       -0.15479194 -0.29125646 0.055283975 -0.19102357
000030 fe 68 e3 3e 20 ca 88 bd 3c 63 f2 bf bb 7e fd bf
       0.4441604 -0.06679177 -1.8936534 -1.98043
000040 c3 55 00 c0 8b d6 de bf 22 9b f2 bf cb 24 ec 3f
       -2.0052345 -1.7409223 -1.8953593 1.8448728
000050 10 68 cb 40 94 35 b5 bf 46 ce 41 41 83 27 54 be
       6.356453 -1.4156976 12.11286 -0.20718198
000060 5a 20 64 c0 f9 64 c2 c0 3f 7c ba c0 27 11 38 c1
       -3.5644746 -6.074826 -5.8276668 -11.504188
000070 3d 72 fa 3f 51 2c 44 40 2a d2 8f 3f 4e 4c 1f c0
       1.9566113 3.0652049 1.1236012 -2.4890323
000080 13 5f 0d c0 5c 8c 69 3e e3 16 72 c0 24 04 48 40
       -2.2089279 0.22807449 -3.782647 3.1252527
000090 28 67 22 40 cc fe 1d 40 72 cf 77 3e 67 68 c5 3e
       2.5375462 2.4686766 0.24200228 0.38556215
0000a0 12 92 3f 40 a1 a6 80 40 cc 19 b4 3e b6 bb 18 c0
       2.9932904 4.0203404 0.3517593 -2.386457
0000b0 11 88 89 bf 39 a1 5d 40 20 61 0e c1 6d 6e a3 3f
       -1.0744649 3.4629653 -8.898712 1.2768074
0000c0 b1 a7 6b 3f 08 41 08 3f 1f e5 4a bf 38 e3 7b bf
       0.9205275 0.5322423 -0.7925586 -0.98393583
0000d0 92 81 da be 82 64 13 3e 0a 1d 1e c0 89 8d 51 40
       -0.4267698 0.1439381 -2.4705224 3.2742636
0000e0 d4 c3 8d 40 52 cf 83 bf e7 00 17 41 e7 fb 4f 3f
       4.430155 -1.0297644 9.43772 0.8124375
0000f0 08 b2 0e be eb 37 0a bf 14 80 c3 be 37 c8 ad bc
       -0.13935101 -0.53991574 -0.38183653 -0.021213634
000100 92 81 a2 bd 6f 2b 43 3d f4 1c bb bd 5b 5b b2 3e
       -0.0793487 0.047648843 -0.09136382 0.34835324
000110 8e c9 88 be 34 3c b7 be 2c f4 1a bf d6 0b ed be
       -0.26716274 -0.3578812 -0.60528827 -0.46298093
000120 9c 97 59 bf 30 d1 54 40 24 16 c3 3f 11 1f 3f 40
       -0.8499696 3.3252678 1.5241132 2.9862711
000130 bc e7 5b c0 3c e5 ba 3f b5 11 1a c1 46 38 1f 3f
       -3.436019 1.4601207 -9.629323 0.6219524
000140 01 54 df c0 ff cb f2 be 29 5b 74 c1 ca ea bc c0
       -6.9790044 -0.47421262 -15.272256 -5.903661
000150 3b 2f bf be d8 4e d6 3d b7 8f 01 be ed 01 81 3e
       -0.3734072 0.10464257 -0.12652479 0.25196782
000160 fb d8 d3 be 90 98 12 bf a0 60 d2 be 5f 8c 9d 3e
       -0.4137648 -0.5726404 -0.41089344 0.30771157
000170 12 07 f1 be 5b de 5b 3e fd 84 7f be 93 f3 bd be
       -0.47075707 0.2147154 -0.24953075 -0.37099895
000180 30 79 1a be 33 31 db bc 00 86 ce 3d 98 9a 94 be
       -0.15085292 -0.026756858 0.10084152 -0.29024196
000190 30 e6 97 bd ff b8 dd be 13 ec 5a 3d 24 2c b1 be
       -0.07416952 -0.43305203 0.053447794 -0.3460399
0001a0 e0 74 51 3d 4e 1b 5b be 1c 07 26 3c d9 b8 d9 3e
       0.05113685 -0.21397135 0.010133531 0.4252384
0001b0 c0 c4 84 bf f6 ec 89 bf 4c c6 19 41 5a da a7 c1
       -1.0372543 -1.077544 9.610912 -20.981617
0001c0 09 26 91 3e 14 87 1d bf 6e 7d 94 3f 9e 53 e8 c1
       0.2834933 -0.6153424 1.1600778 -29.040829
0001d0 51 55 b6 3f d1 82 10 40 b8 72 81 be 45 8d 10 c0
       1.4244787 2.2579844 -0.25282836 -2.2586224
0001e0 62 2a 0e bf b2 5f b9 3d 52 00 da c2 6f a6 d4 c0
       -0.5553342 0.090514556 -109.000626 -6.6453166
0001f0 7d 9c 33 bf 4d 1c 3d 3f 95 e3 3f c0 0c 32 6c bf
       -0.7016066 0.7387131 -2.9982655 -0.92263865
000200 d6 d3 96 3f 3b 38 25 40 9d 38 b9 bf f7 2c 0a c0
       1.1783397 2.581557 -1.4470402 -2.1589944
000210 6b bf a9 3e 77 72 e9 bf 9a 7e 99 40 aa 84 10 40
       0.33153853 -1.8238057 4.7967043 2.2580972
000220 e5 4c 14 3f f5 10 d1 be 15 d6 36 40 a5 31 88 c0
       0.5792983 -0.4083325 2.8568165 -4.25606
000230 d5 51 a2 c0 1b 54 ed be 83 e1 19 c1 30 0d 3f 40
       -5.0724893 -0.4635323 -9.617557 2.98518

sequential/dense_1/MatMul f4 [4, 12]
000000 b4 d3 3b 3e 36 91 c3 40 29 8c 52 40 a0 8c 9e c2
       0.18342477 6.111476 3.2898047 -79.27466
000010 f1 61 08 c1 1f bf 57 be ad 87 a4 40 d8 85 2d 3d
       -8.523911 -0.21069 5.141562 0.04236397
000020 50 cf a4 be 64 a1 11 3f de 36 20 c0 a1 74 a8 c0
       -0.32189417 0.5688689 -2.5033488 -5.264237
000030 c8 e1 be 3e fd 79 95 3f f6 66 90 c0 13 ca 85 3f
       0.37281632 1.1677853 -4.5125685 1.0452293
000040 64 11 b8 bf c7 57 37 3e d2 db 5f c0 ab 57 90 3e
       -1.4380307 0.17904578 -3.4977918 0.28191885
000050 aa 39 59 be ff b2 1d 40 88 67 4c 3f b5 b1 b9 c0
       -0.21213403 2.46405 0.79845476 -5.8029428
000060 3a 83 9f bd 6c 12 fd bf cb 87 a4 c1 37 fa f8 3e
       -0.07788701 -1.9771247 -20.566305 0.486284
000070 76 d4 41 3d 21 d3 9b 3d 45 a9 af 3f f5 12 cf 3d
       0.04732176 0.07608629 1.3723532 0.10111038
000080 80 ca 2f bd 3e c9 51 c0 76 19 35 bf 63 38 81 3f
       -0.04291773 -3.2779078 -0.70741975 1.0095333
000090 42 ff da be a7 a5 83 bf 0b bb 7e c1 13 23 33 c0
       -0.4277287 -1.0284928 -15.920665 -2.7990158
0000a0 a0 f8 9f 3f 9f a8 bd bd 95 fd 29 c0 b6 51 ea 3d
       1.2497749 -0.092606775 -2.6561024 0.114413664
0000b0 f2 5d 24 3e 09 80 29 c2 f0 c1 42 bf e0 5d db 3c
       0.16051462 -42.375034 -0.76077175 0.026778162
