results/c_code/approach3/mlp_int8.tflite (tflite, 2240 bytes, 2 tensors)

sequential/dense_1/MatMul i1 [4, 12] scale=0.6242099 zero_point=0
00000000: 000a 0581 f200 0800 ff01 fcf8 0102 f902
00000010: fe00 fa00 0004 01f7 00fd df01 0000 0200
00000020: 00fb ff02 fffe e6fc 0200 fc00 00bc ff00
0.0 6.242099 3.1210494 -79.27466 -8.738938 0.0 4.993679 0.0
-0.6242099 0.6242099 -2.4968395 -4.993679 0.6242099 1.2484198 -4.369469 1.2484198
-1.2484198 0.0 -3.7452593 0.0 0.0 2.4968395 0.6242099 -5.617889
0.0 -1.8726296 -20.598927 0.6242099 0.0 0.0 1.2484198 0.0
0.0 -3.1210494 -0.6242099 1.2484198 -0.6242099 -1.2484198 -16.229458 -2.4968395
1.2484198 0.0 -2.4968395 0.0 0.0 -42.446274 -0.6242099 0.0

sequential/dense/MatMul i1 [12, 12] scale=0.8582727 zero_point=0
00000000: 0000 0000 00ff 0000 0000 0000 0100 fefe
00000010: fefe fe02 07fe 0e00 fcf9 f9f3 0204 01fd
00000020: fd00 fc04 0303 0000 0305 00fd ff04 f601
00000030: 0101 ffff 0000 fd04 05ff 0b01 00ff 0000
00000040: 0000 0000 0000 ffff ff04 0203 fc02 f501
00000050: f8ff eef9 0000 0000 00ff 0000 ff00 0000
00000060: 0000 0000 00ff 0000 0000 0000 ffff 0be8
00000070: 00ff 01de 0203 00fd ff00 81f8 ff01 fdff
00000080: 0103 fefd 00fe 0603 0100 03fb faff f503
0.0 0.0 0.0 0.0 0.0 -0.8582727 0.0 0.0
0.0 0.0 0.0 0.0 0.8582727 0.0 -1.7165453 -1.7165453
-1.7165453 -1.7165453 -1.7165453 1.7165453 6.007909 -1.7165453 12.015818 0.0
-3.4330907 -6.007909 -6.007909 -11.157545 1.7165453 3.4330907 0.8582727 -2.5748181
-2.5748181 0.0 -3.4330907 3.4330907 2.5748181 2.5748181 0.0 0.0
2.5748181 4.2913632 0.0 -2.5748181 -0.8582727 3.4330907 -8.5827265 0.8582727
0.8582727 0.8582727 -0.8582727 -0.8582727 0.0 0.0 -2.5748181 3.4330907
4.2913632 -0.8582727 9.440999 0.8582727 0.0 -0.8582727 0.0 0.0
0.0 0.0 0.0 0.0 0.0 0.0 -0.8582727 -0.8582727
-0.8582727 3.4330907 1.7165453 2.5748181 -3.4330907 1.7165453 -9.440999 0.8582727
-6.8661814 -0.8582727 -15.448908 -6.007909 0.0 0.0 0.0 0.0
0.0 -0.8582727 0.0 0.0 -0.8582727 0.0 0.0 0.0
0.0 0.0 0.0 0.0 0.0 -0.8582727 0.0 0.0
0.0 0.0 0.0 0.0 -0.8582727 -0.8582727 9.440999 -20.598545
0.0 -0.8582727 0.8582727 -29.18127 1.7165453 2.5748181 0.0 -2.5748181
-0.8582727 0.0 -109.000626 -6.8661814 -0.8582727 0.8582727 -2.5748181 -0.8582727
0.8582727 2.5748181 -1.7165453 -2.5748181 0.0 -1.7165453 5.1496363 2.5748181
0.8582727 0.0 2.5748181 -4.2913632 -5.1496363 -0.8582727 -9.440999 2.5748181
